layanan_middleware/models/stgcn_model_cpu.pth (torch, 312420 bytes, 9 tensors)

A_tensor f4 [17, 17]
0.2 0.2581989 0.2581989 0.0 0.0 0.2 0.2 0.0
0.0 0.0 0.0 0.0 0.0 0.0 0.0 0.0
0.0 0.2581989 0.33333334 0.0 0.4082483 0.0 0.0 0.0
0.0 0.0 0.0 0.0 0.0 0.0 0.0 0.0
0.0 0.0 0.2581989 0.0 0.33333334 0.0 0.4082483 0.0
0.0 0.0 0.0 0.0 0.0 0.0 0.0 0.0
0.0 0.0 0.0 0.0 0.4082483 0.0 0.5 0.0
0.0 0.0 0.0 0.0 0.0 0.0 0.0 0.0
0.0 0.0 0.0 0.0 0.0 0.0 0.4082483 0.0
0.5 0.0 0.0 0.0 0.0 0.0 0.0 0.0
0.0 0.0 0.0 0.0 0.0 0.2 0.0 0.0
0.0 0.0 0.2 0.2 0.2581989 0.0 0.0 0.0
0.2236068 0.0 0.0 0.0 0.0 0.0 0.2 0.0
0.0 0.0 0.0 0.2 0.2 0.0 0.2581989 0.0
0.0 0.0 0.2236068 0.0 0.0 0.0 0.0 0.0
0.0 0.0 0.0 0.0 0.2581989 0.0 0.33333334 0.0
0.4082483 0.0 0.0 0.0 0.0 0.0 0.0 0.0
0.0 0.0 0.0 0.0 0.0 0.0 0.2581989 0.0
0.33333334 0.0 0.4082483 0.0 0.0 0.0 0.0 0.0
0.0 0.0 0.0 0.0 0.0 0.0 0.0 0.0
0.4082483 0.0 0.5 0.0 0.0 0.0 0.0 0.0
0.0 0.0 0.0 0.0 0.0 0.0 0.0 0.0
0.0 0.0 0.4082483 0.0 0.5 0.0 0.0 0.0
0.0 0.0 0.0 0.0 0.0 0.0 0.0 0.0
0.2236068 0.0 0.0 0.0 0.0 0.0 0.25 0.25
0.28867513 0.0 0.0 0.0 0.0 0.0 0.0 0.0
0.0 0.0 0.2236068 0.0 0.0 0.0 0.0 0.25
0.25 0.0 0.28867513 0.0 0.0 0.0 0.0 0.0
0.0 0.0 0.0 0.0 0.0 0.0 0.0 0.0
0.28867513 0.0 0.33333334 0.0 0.4082483 0.0 0.0 0.0
0.0 0.0 0.0 0.0 0.0 0.0 0.0 0.0
0.0 0.0 0.28867513 0.0 0.33333334 0.0 0.4082483 0.0
00000000: cdcc 4c3e a532 843e a532 843e 0000 0000
00000010: 0000 0000 cdcc 4c3e cdcc 4c3e 0000 0000
00000020: 0000 0000 0000 0000 0000 0000 0000 0000
00000030: 0000 0000 0000 0000 0000 0000 0000 0000
00000040: 0000 0000 a532 843e abaa aa3e 0000 0000
00000050: ec05 d13e 0000 0000 0000 0000 0000 0000
00000060: 0000 0000 0000 0000 0000 0000 0000 0000
00000070: 0000 0000 0000 0000 0000 0000 0000 0000
00000080: 0000 0000 0000 0000 a532 843e 0000 0000
00000090: abaa aa3e 0000 0000 ec05 d13e 0000 0000
000000a0: 0000 0000 0000 0000 0000 0000 0000 0000
000000b0: 0000 0000 0000 0000 0000 0000 0000 0000
000000c0: 0000 0000 0000 0000 0000 0000 0000 0000
000000d0: ec05 d13e 0000 0000 0000 003f 0000 0000
000000e0: 0000 0000 0000 0000 0000 0000 0000 0000
000000f0: 0000 0000 0000 0000 0000 0000 0000 0000
00000100: 0000 0000 0000 0000 0000 0000 0000 0000
00000110: 0000 0000 0000 0000 ec05 d13e 0000 0000
00000120: 0000 003f 0000 0000 0000 0000 0000 0000
00000130: 0000 0000 0000 0000 0000 0000 0000 0000
00000140: 0000 0000 0000 0000 0000 0000 0000 0000
00000150: 0000 0000 cdcc 4c3e 0000 0000 0000 0000
00000160: 0000 0000 0000 0000 cdcc 4c3e cdcc 4c3e
00000170: a532 843e 0000 0000 0000 0000 0000 0000
00000180: 2ef9 643e 0000 0000 0000 0000 0000 0000
00000190: 0000 0000 0000 0000 cdcc 4c3e 0000 0000
000001a0: 0000 0000 0000 0000 0000 0000 cdcc 4c3e
000001b0: cdcc 4c3e 0000 0000 a532 843e 0000 0000
000001c0: 0000 0000 0000 0000 2ef9 643e 0000 0000
000001d0: 0000 0000 0000 0000 0000 0000 0000 0000
000001e0: 0000 0000 0000 0000 0000 0000 0000 0000
000001f0: a532 843e 0000 0000 abaa aa3e 0000 0000
00000200: ec05 d13e 0000 0000 0000 0000 0000 0000
00000210: 0000 0000 0000 0000 0000 0000 0000 0000
00000220: 0000 0000 0000 0000 0000 0000 0000 0000
00000230: 0000 0000 0000 0000 a532 843e 0000 0000
00000240: abaa aa3e 0000 0000 ec05 d13e 0000 0000
00000250: 0000 0000 0000 0000 0000 0000 0000 0000
00000260: 0000 0000 0000 0000 0000 0000 0000 0000
00000270: 0000 0000 0000 0000 0000 0000 0000 0000
00000280: ec05 d13e 0000 0000 0000 003f 0000 0000
00000290: 0000 0000 0000 0000 0000 0000 0000 0000
000002a0: 0000 0000 0000 0000 0000 0000 0000 0000
000002b0: 0000 0000 0000 0000 0000 0000 0000 0000
000002c0: 0000 0000 0000 0000 ec05 d13e 0000 0000
000002d0: 0000 003f 0000 0000 0000 0000 0000 0000
000002e0: 0000 0000 0000 0000 0000 0000 0000 0000
000002f0: 0000 0000 0000 0000 0000 0000 0000 0000
00000300: 2ef9 643e 0000 0000 0000 0000 0000 0000
00000310: 0000 0000 0000 0000 0000 803e 0000 803e
00000320: 3acd 933e 0000 0000 0000 0000 0000 0000
00000330: 0000 0000 0000 0000 0000 0000 0000 0000
00000340: 0000 0000 0000 0000 2ef9 643e 0000 0000
00000350: 0000 0000 0000 0000 0000 0000 0000 803e
00000360: 0000 803e 0000 0000 3acd 933e 0000 0000
00000370: 0000 0000 0000 0000 0000 0000 0000 0000
00000380: 0000 0000 0000 0000 0000 0000 0000 0000
00000390: 0000 0000 0000 0000 0000 0000 0000 0000
000003a0: 3acd 933e 0000 0000 abaa aa3e 0000 0000
000003b0: ec05 d13e 0000 0000 0000 0000 0000 0000
000003c0: 0000 0000 0000 0000 0000 0000 0000 0000
000003d0: 0000 0000 0000 0000 0000 0000 0000 0000
000003e0: 0000 0000 0000 0000 3acd 933e 0000 0000
000003f0: abaa aa3e 0000 0000 ec05 d13e 0000 0000

st_gcn1.0.weight f4 [64, 2, 1, 1]
-0.39539105 0.54458314 -0.08022096 0.28487688 -0.4341369 0.23289539 -0.50947404 -0.24335738
-0.083933845 -0.027236557 0.555116 -0.385869 0.06946536 -0.67525154 -0.2242944 -0.62289554
-0.52075934 0.47910246 -0.056266632 -0.30009785 -0.75828403 0.5393882 -0.12415703 -0.49820003
0.61779445 -0.70660627 -0.36671686 -0.3285141 -0.3032868 0.468285 -0.18288976 0.4204958
-0.30580994 0.14503449 -0.007125346 -0.51360345 0.13939947 0.01922479 -0.047110736 -0.38512954
0.6999212 0.080873355 -0.15253568 -0.44635433 -0.5559034 0.21177915 0.042078394 -0.11628707
-0.14215912 -0.48384422 0.3680417 0.40045524 0.26293263 0.4574912 0.045289908 0.066864796
0.4016421 -0.114926 0.31921792 -0.581704 -0.26986268 0.571331 -0.037631072 0.057135914
-0.12985203 0.52094644 -0.25838238 -0.084725894 0.7602912 0.5788483 -0.13577436 -0.40374213
-0.23435165 0.05580091 -0.026002537 -0.768581 0.24652392 -0.4268285 -0.44844538 -0.36215016
0.053222258 0.2987153 -0.35619372 0.16034709 -0.055141337 0.25469118 -0.7043784 -0.5748876
0.65159345 0.6301153 -0.29598364 -0.04446071 0.12588018 -0.4649996 -0.289759 -0.2038827
0.49754658 -0.6987691 -0.2629719 0.5297337 -0.18292013 -0.43899718 0.5787049 -0.32329372
0.23160426 -0.12805271 -0.118707605 0.15985204 -0.912385 0.049204916 0.35724315 -0.7307827
0.24791864 -0.5252335 -0.33170998 -0.10889645 -0.26760837 0.06102088 -0.40488935 -0.25879866
-1.8012435 -0.69041204 -0.16304255 -0.19441658 0.5446049 0.20563039 0.580904 -0.011653883
00000000: b270 cabe cd69 0b3f e34a a4bd 62db 913e
00000010: 3147 debe 217c 6e3e e46c 02bf ad32 79be
00000020: 82e5 abbd 331f dfbc 151c 0e3f 9f90 c5be
00000030: db43 8e3d 49dd 2cbf 6ead 65be 1576 1fbf
00000040: 7c50 05bf eb4c f53e d777 66bd 6da6 99be
00000050: e71e 42bf 5815 0a3f 0a46 febd 1314 ffbe
00000060: c727 1e3f 26e4 34bf 50c2 bbbe 0033 a8be
00000070: 6848 9bbe 0dc3 ef3e 7447 3bbe 3a4b d73e
00000080: 1f93 9cbe ec83 143e bc7b e9bb 847b 03bf
00000090: bcbe 0e3e 4f7d 9d3c 30f7 40bd b32f c5be
000000a0: 092e 333f eea0 a53d 5032 1cbe 8e88 e4be
000000b0: af4f 0ebf a2dc 583e 655a 2c3d ea27 eebd
000000c0: 2992 11be 6eba f7be f66f bc3e 7808 cd3e
000000d0: 1b9f 863e 493c ea3e e981 393d 69f0 883d
000000e0: 09a4 cd3e 535e ebbd 8870 a33e 8eea 14bf
000000f0: 712b 8abe c042 123f 0a23 1abd 5907 6a3d
00000100: eef7 04be bf5c 053f b24a 84be c584 adbd
00000110: 72a2 423f 672f 143f 6f08 0bbe 4ab7 cebe
00000120: e1f9 6fbe 7f8f 643d 4603 d5bc b9c1 44bf
00000130: c470 7c3e 4489 dabe a29a e5be bf6b b9be
00000140: 95ff 593d 36f1 983e 065f b6be 0732 243e
00000150: e2db 61bd e266 823e 2552 34bf d52b 13bf
00000160: d4ce 263f 3c4f 213f 2b8b 97be 6f1c 36bd
00000170: bce6 003e 6d14 eebe 4b5b 94be a0c6 50be
00000180: 6dbe fe3e 88e2 32bf 41a4 86be a19c 073f
00000190: 6a4f 3bbe 3dc4 e0be 0126 143f c186 a5be
000001a0: ab29 6d3e 4020 03be f91c f3bd 41b0 233e
000001b0: 1092 69bf 188b 493d 93e8 b63e 9314 3bbf
000001c0: 62de 7d3e b475 06bf e4d5 a9be 1a05 dfbd
000001d0: f703 89be 08f1 793d a84d cfbe 4281 84be
000001e0: 268f e6bf d8be 30bf a0f4 26be 2415 47be
000001f0: 3a6b 0b3f c690 523e 20b6 143f eeef 3ebc

st_gcn1.0.bias f4 [64]
-0.6739861 0.0048099775 -0.48641786 0.6615362 -0.55891806 0.39889726 0.21258472 -0.26235577
0.0004268047 -0.70602393 0.47875637 -0.6569489 0.2661205 -0.5191608 0.5653118 0.004586724
0.107860476 -0.49200478 0.07903868 -0.41506612 -0.23518887 -0.56566346 0.47991243 -0.003116278
0.17976815 -0.69127977 -0.16017234 -0.31534305 0.09249379 0.3901911 0.49066675 -0.06648808
-0.2609064 0.18911184 -0.49258098 0.13893685 0.023158157 0.33203357 -0.0051693595 0.31010324
-0.079063736 -0.20515627 -0.024362942 -0.25840628 -0.23045446 -0.68018085 0.3991961 0.21666238
0.0066173216 -0.14107665 0.5400686 -0.009892909 0.13872607 -0.5497811 0.3116536 0.0042006485
-0.33787155 0.17774184 -0.35191977 -0.4640067 0.32734525 -0.28578717 -0.29079467 -0.019955628
00000000: 5a8a 2cbf 049d 9d3b c30b f9be 705a 293f
00000010: 4115 0fbf 433c cc3e cfaf 593e 7f53 86be
00000020: c2c4 df39 fcbd 34bf 8e1f f53e ce2d 28bf
00000030: f240 883e b9e7 04bf 46b8 103f 3b4c 963b
00000040: f4e5 dc3d 0de8 fbbe 08df a13d 8c83 d4be
00000050: 5ad5 70be 52cf 10bf 15b7 f53e 783a 4cbb
00000060: 2415 383e b6f7 30bf 3804 24be a574 a1be
00000070: 626d bd3d 21c7 c73e ac38 fb3e e72a 88bd
00000080: 8695 85be 89a6 413e 9333 fcbe 7645 0e3e
00000090: 2db6 bd3c 4e00 aa3e bb63 a9bb dac5 9e3e
000000a0: 2bec a1bd 7c14 52be cb94 c7bc d44d 84be
000000b0: 41fc 6bbe 5520 2ebf 6e63 cc3e bedc 5d3e
000000c0: 1ed6 d83b 6676 10be f041 0a3f de15 22bc
000000d0: 350e 0e3e 74be 0cbf 1091 9f3e 98a5 893b
000000e0: 80fd acbe f501 363e d42e b4be 4992 edbe
000000f0: cc99 a73e b252 92be 0ae3 94be fc79 a3bc

gcn1.weight f4 [64, 64]
0.27227837 -0.08744535 0.22403006 0.058663484 -0.041841906 -0.019974101 -0.19811869 0.1523694
-0.070358306 -0.15050663 -0.20692495 0.10992891 0.05584205 -0.137384 0.17441973 0.033028595
0.123164706 -0.038916375 -0.10929487 -0.014743032 -0.2334166 -0.105899654 0.27695334 -0.18644288
0.12324318 -0.15693346 -0.11209626 -0.19360426 0.3008666 0.22224385 -0.23816916 -0.11820483
-0.30514273 0.28978655 -0.29180032 0.18459728 -0.17220774 -0.2661936 0.037176628 -0.18732122
-0.13560629 -0.18059754 0.2716623 -0.20692812 0.045084223 0.23003238 0.16995652 -0.28908828
0.3054333 -0.08218657 0.23029727 -0.1665429 0.14058788 0.1803631 0.30520904 0.28645387
-0.21189067 -0.16660912 0.062461954 -0.15164395 0.15328503 0.26945955 -0.21032348 -0.18098685
0.10852606 -0.123733856 -0.29112953 0.22085477 0.08625684 -0.04219773 -0.0019916461 0.22927979
0.08109771 0.11715241 -0.2689727 0.22201335 0.2785403 -0.10646381 -0.012055814 -0.07292269
0.023601018 -0.11317573 0.17708188 -0.21246552 -0.35238457 -0.23893072 -0.23184714 0.18507847
0.19924438 0.26332602 -0.09272837 0.1935241 -0.23783712 0.026680226 -0.2519768 0.108260535
0.09357093 0.012914119 0.2475156 0.16302861 0.12757872 0.122171275 -0.19759847 -0.19408298
0.09795224 0.06528747 0.005514249 0.2787553 -0.31990713 -0.24874072 -0.17340086 0.33869204
-0.013418543 -0.086683966 -0.026747359 0.18484691 -0.18390037 0.14946337 0.04243479 0.11486372
-0.058088273 -0.10660672 0.10595488 -0.2726571 -0.12804085 0.13429697 0.14911942 -0.31455266
-0.28059116 -0.029807338 0.30561784 -0.19615705 0.19262113 0.15505019 -0.016654294 0.043162487
-0.07625094 0.23995599 0.066774495 0.17626686 0.22827178 -0.1599499 0.14350168 0.1960117
0.026521405 -0.26041946 -0.026061831 0.2606148 0.084311835 -0.12959473 0.22993061 0.21576804
-0.11280937 -0.048523568 0.019623114 -0.2893684 0.2567255 -0.083280265 -0.037153378 -0.13994057
-0.28411126 0.16174123 -0.25304893 0.2360052 -0.045482367 -0.14974096 0.04494293 0.24169593
0.21164845 0.27071935 0.15044042 0.29892534 -0.27508104 -0.15729076 0.22914706 -0.27788517
-0.14455107 0.12575275 -0.2597007 0.28274614 -0.00026510126 0.17682967 0.2154809 0.015565638
0.016708497 0.25687158 0.30435234 0.25892642 0.034990266 -0.1411486 0.22846933 0.28854406
0.35917342 -0.04786632 -0.112131655 -0.1949913 -0.00813606 0.32709575 0.016922561 -0.03945381
0.10741072 0.31419256 -0.114694916 -0.18437508 0.14735694 -0.104651295 -0.20353268 -0.14507042
-0.029850088 0.114599556 0.32089305 0.3365309 0.027786825 -0.08872859 -0.25795093 0.18921453
0.09601596 0.25341755 0.25238132 -0.02260183 0.043719362 -0.2355096 -0.24423644 -0.095787436
0.25496948 -0.23654498 0.10930391 -0.040715758 -0.15592232 -0.17299089 -0.15209706 0.31872174
0.29435217 0.33827075 -0.1624394 0.23341085 0.25185072 0.3785899 -0.03236375 -0.0029915788
-0.03570738 0.04350389 -0.09119334 0.28951114 0.19878878 -0.026705202 0.16954754 0.19584903
0.055240188 0.1538645 0.13733865 -0.10781165 0.22480945 0.08596531 -0.34375662 0.3152007
00000000: 1268 8b3e 8c16 b3bd 2368 653e 1f49 703d
00000010: 6b62 2bbd baa0 a3bc a0df 4abe b906 1c3e
00000020: 0418 90bd 691e 1abe 22e4 53be 6922 e13d
00000030: a2ba 643d 64ae 0cbe 169b 323e fe48 073d
00000040: c73d fc3d c766 1fbd fdd5 dfbd c28c 71bc
00000050: c304 6fbe ebe1 d8bd d4cc 8d3e e2ea 3ebe
00000060: ec66 fc3d 2ab3 20be b992 e5bd 3240 46be
00000070: 300b 9a3e e493 633e 9ee2 73be 6015 f2bd
00000080: ab3b 9cbe e75e 943e da66 95be 1207 3d3e
00000090: 3a57 30be 874a 88be 8546 183d 22d1 3fbe
000000a0: 60dc 0abe 90ee 38be 5217 8b3e f7e4 53be
000000b0: 3caa 383d 9c8d 6b3e 1509 2e3e 6103 94be
000000c0: c161 9c3e 6f51 a8bd 0cd3 6b3e 398a 2abe
000000d0: 45f6 0f3e 1bb1 383e 5c44 9c3e 15aa 923e
000000e0: def9 58be 959b 2abe 1bd8 7f3d 8d48 1bbe
000000f0: c0f6 1c3e 9af6 893e 0a5f 57be 9e54 39be
00000100: e942 de3d 2d68 fdbd ee0e 95be c127 623e
00000110: 6da7 b03d 87d7 2cbd 4786 02bb 52c8 6a3e
00000120: 8e16 a63d 9aed ef3d cab6 89be 7857 633e
00000130: d69c 8e3e b309 dabd c085 45bc 7e58 95bd
00000140: ec56 c13c adc8 e7bd f454 353e 9090 59be
00000150: c06b b4be 41aa 74be 5669 6dbe 3685 3d3e
00000160: b806 4c3e abd2 863e 5fe8 bdbd 2f2b 463e
00000170: 938b 73be 7d90 da3c 1a03 81be b3b7 dd3d
00000180: 1ea2 bf3d be95 533c bb74 7d3e f9f0 263e
00000190: ffa3 023e ef34 fa3d 4157 4abe b0bd 46be
000001a0: 2f9b c83d 70b5 853d e0b0 b43b 04b9 8e3e
000001b0: deca a3be e3b5 7ebe ff8f 31be 0b69 ad3e
000001c0: 73d9 5bbc 5d87 b1bd 471d dbbc 8248 3d3e
000001d0: 6150 3cbe ed0c 193e 1ad0 2d3d ac3d eb3d
000001e0: f8ed 6dbd a054 dabd dffe d83d b699 8bbe
000001f0: 241d 03be 2585 093e c3b2 183e 0c0d a1be
00000200: a5a9 8fbe 852e f4bc f179 9c3e 65dd 48be
00000210: 793e 453e 7ac5 1e3e 966e 88bc 26cb 303d
00000220: 7429 9cbd 06b7 753e 11c1 883d 4d7f 343e
00000230: 14c0 693e e8c9 23be 1bf2 123e 4bb7 483e
00000240: 6b43 d93c b355 85be 9f7f d5bc 4e6f 853e
00000250: afab ac3d 7bb4 04be ee72 6b3e 4cf2 5c3e
00000260: 9908 e7bd a6c0 46bd a7c0 a03c 1828 94be
00000270: 8671 833e d88e aabd 242e 18bd 954c 0fbe
00000280: 0877 91be 7e9f 253e a18f 81be 59ab 713e
00000290: b84b 3abd b255 19be 1416 383d 237f 773e
000002a0: 5fba 583e ba9b 8a3e 0e0d 1a3e be0c 993e
000002b0: 6cd7 8cbe d410 21be 87a5 6a3e f746 8ebe
000002c0: 3205 14be 54c5 003e 7df7 84be 1ac4 903e
000002d0: 4afd 8ab9 d612 353e 06a7 5c3e 0507 7f3c
000002e0: 42e0 883c ac84 833e 12d4 9b3e 0192 843e
000002f0: f451 0f3d 4289 10be ddf3 693e 0cbc 933e
00000300: 94e5 b73e 790f 44bd 48a5 e5bd cdab 47be
00000310: 1c4d 05bc 1879 a73e 2fa1 8a3c 519a 21bd
00000320: 27fa db3d d9dd a03e 2be5 eabd d2cc 3cbe
00000330: bde4 163e 6b53 d6bd df6a 50be 578d 14be
00000340: 2c88 f4bc 2cb3 ea3d 184c a43e c74d ac3e
00000350: 32a1 e33c 56b7 b5bd 2512 84be 74c1 413e
00000360: 04a4 c43d f2bf 813e 2038 813e 7927 b9bc
00000370: 1313 333d 6e29 71be 1e19 7abe 342c c4bd
00000380: 5c8b 823e d938 72be bada df3d 91c5 26bd
00000390: 1aaa 1fbe 8624 31be 55bf 1bbe 7f2f a33e
000003a0: 54b5 963e d331 ad3e 8456 26be 4103 6f3e
000003b0: 94f2 803e 89d6 c13e da8f 04bd 5d0e 44bb
000003c0: e741 12bd 2331 323d 93c3 babd ce3a 943e
000003d0: 498f 4b3e dec4 dabc df9d 2d3e a68c 483e
000003e0: 8943 623d a88e 1d3e 81a2 0c3e 5bcc dcbd
000003f0: 7334 663e 950e b03d de00 b0be fc61 a13e

st_gcn2.0.weight f4 [128, 64, 1, 1]
-0.13656075 -0.05822487 0.08036798 -0.08695516 0.0064125285 -0.011439669 -0.1139861 -0.03010279
-0.06854472 -0.06528251 0.073598646 -0.05500895 0.06673658 0.048135165 0.07766475 -0.010203
-0.10309879 -0.014762504 0.04381182 -0.06029252 0.050576106 0.10545455 -0.0022308312 -0.009264457
-0.09189143 0.040166907 0.08264135 0.10340406 -0.059646565 -0.0145263085 -0.046527516 -0.06710524
-0.09557211 -0.0058193323 -0.005157637 -0.08426513 -0.119750984 0.08544317 -0.07650628 0.0977161
-0.04503156 0.055283114 0.0081047695 0.070244186 -0.009277374 -0.124928765 0.059770167 -0.12376737
0.08408892 0.10119563 -0.049424026 -0.04602017 -0.060208626 -0.11419624 -0.083218075 0.03285104
0.072631404 0.09049765 0.025288017 -0.013347461 -0.05735076 0.03804185 0.041252647 -0.014789386
-0.096743755 -0.33693734 0.005220215 -0.07213832 -0.064209275 -0.120069414 -0.1600283 -0.27691013
-0.02944251 -0.30889535 0.1378669 -0.14388324 -0.33520436 -0.02424235 0.2103774 0.08540414
0.016193818 -0.4024882 0.14244477 0.063509196 -0.19044133 0.16621521 0.28715146 -0.10294825
0.12447254 0.2569555 -0.056041222 -0.21851234 -0.15737727 0.30068803 -0.20990911 -0.079241045
-0.162713 -0.18661007 0.012517556 0.0043067676 0.14846458 -0.06356866 0.015190621 -0.6077822
0.02181316 0.035891425 -0.04080904 0.013732859 0.13005443 -0.059827447 -0.097950526 0.05915879
0.14126211 0.056504693 0.0519535 -0.07446411 0.04162176 0.2736756 -0.1433802 0.17130402
-0.065260656 0.055392306 -0.13003762 0.09465298 -0.19270395 0.38720363 -0.14831398 -0.50143576
-0.015681371 -0.08912293 -0.033691667 0.109812714 -0.016128184 -0.06388908 0.075117975 -0.06474083
-0.03468437 -0.08640074 -0.034246046 0.04799337 -0.1349106 0.00037906144 -0.04846653 -0.035962638
-0.04418131 0.12278291 -0.08051463 -0.071708106 0.11870726 -0.06629491 0.043363776 -0.04582321
-0.03816878 0.008359836 0.08822362 -0.018558122 0.10054623 0.1268248 -0.071432084 -0.117121056
0.038735047 0.09095016 0.052428454 0.08775173 -0.06199363 -0.04092706 0.11927407 -0.096052825
-0.012060238 -0.09043684 0.019636886 0.021685231 0.013163345 -0.108812585 0.007380286 -0.1254652
-0.13370273 -0.020207303 -0.08698313 0.008431308 0.07503898 -0.06350839 0.061133374 -0.047900446
0.09492488 -0.05916041 -0.07287996 -0.09375155 -0.1000495 -0.043148648 -0.012024707 0.05250977
-0.1391158 -0.0022281935 -0.030227428 -0.15196314 0.035225246 0.008805851 -0.0017356394 -0.10673009
-0.06597337 -0.03322867 0.18723048 0.11811033 -0.02393385 0.0047740126 -0.11274095 -0.14441824
-0.04591709 -0.08562478 -0.001016891 0.23007047 -0.011595836 -0.14103624 0.025919609 -0.19483078
-0.003004755 0.15125263 0.052574027 -0.0010872876 0.08127737 0.120304175 -0.10469341 0.09877296
-0.059722975 0.042205192 -0.10937937 -0.039714437 -0.045998223 0.069306925 -0.001417651 -0.12212455
0.023439445 0.20865756 -0.068558834 0.020974133 0.09535999 0.041736726 -0.15658356 -0.06486307
0.030359954 0.079443425 -0.13878334 -0.0035657296 0.0517102 -0.07391559 -0.15407515 -0.050951075
0.1378469 0.09294941 -0.008207145 0.09084213 0.1364301 0.19513659 -0.06802361 -0.13064075
00000000: 95d6 0bbe 347d 6ebd f897 a43d 8c15 b2bd
00000010: 3020 d23b 736d 3bbc 8b71 e9bd 209a f6bc
00000020: 2d61 8cbd d6b2 85bd e3ba 963d 1151 61bd
00000030: 30ad 883d 6129 453d b20e 9f3d 7c2a 27bc
00000040: 7525 d3bd 6ede 71bc 0674 333d 4af5 76bd
00000050: e428 4f3d 8ef8 d73d 2333 12bb f3c9 17bc
00000060: 9331 bcbd 0e86 243d de3f a93d 82c5 d33d
00000070: f54f 74bd c1ff 6dbc a393 3ebd 796e 89bd
00000080: 4fbb c3bd 19b0 bebb 6501 a9bb 3293 acbd
00000090: 0140 f5bd d4fc ae3d 53af 9cbd 611f c83d
000000a0: 0373 38bd 8c70 623d dec9 043c 2fdc 8f3d
000000b0: 2000 18bc a7da ffbd 90d1 743d bf79 fdbd
000000c0: d036 ac3d a83f cf3d d970 4abd a57f 3cbd
000000d0: 529d 76bd b8df e9bd 3d6e aabd d08e 063d
000000e0: c6bf 943d d556 b93d d128 cf3c 4faf 5abc
000000f0: a1e8 6abd c5d1 1b3d 89f8 283d 2e4f 72bc
00000100: 9721 c6bd 0d83 acbe 560e ab3b 41bd 93bd
00000110: 2780 83bd f4e6 f5bd 75de 23be 2ac7 8dbe
00000120: 6b31 f1bc 8827 9ebe fb2c 0d3e 2156 13be
00000130: e89f abbe e597 c6bc 2c6d 573e 5ee8 ae3d
00000140: e6a8 843c ef12 cebe 0bdd 113e 1c11 823d
00000150: 0d03 43be 5234 2a3e 8405 933e 88d6 d2bd
00000160: 76eb fe3d ac8f 833e 7b8b 65bd b3c1 5fbe
00000170: 8227 21be c8f3 993e 6af2 56be 2149 a2bd
00000180: 3d9e 26be b616 3fbe 6f16 4d3c c91f 8d3b
00000190: 1907 183e 4930 82bd 15e2 783c 9d97 1bbf
000001a0: 83b1 b23c e302 133d 6127 27bd c9ff 603c
000001b0: fd2c 053e a00d 75bd 499a c8bd 7d50 723d
000001c0: 04a7 103e 7771 673d 31cd 543d a480 98bd
000001d0: 947b 2a3d 351f 8c3e 42d2 12be 526a 2f3e
000001e0: 61a7 85bd 0be3 623d 9528 05be 6cd9 c13d
000001f0: 2f54 45be 8e3f c63e 9fdf 17be 185e 00bf
00000200: 3876 80bc 1586 b6bd 4600 0abd 7de5 e03d
00000210: 411f 84bc 47d8 82bd 74d7 993d d796 84bd
00000220: 3311 0ebd dff2 b0bd 9545 0cbd b294 443d
00000230: 0126 0abe c4bc c639 d784 46bd 8f4d 13bd
00000240: 76f7 34bd 9b75 fb3d dbe4 a4bd b3db 92bd
00000250: cb1c f33d a0c5 87bd 379e 313d 1eb1 3bbd
00000260: de56 1cbd b2f7 083c 96ae b43d 3407 98bc
00000270: 2feb cd3d 5cde 013e fc4a 92bd 2add efbd
00000280: a4a8 1e3d 1444 ba3d 38bf 563d 2eb7 b33d
00000290: 08ed 7dbd 22a3 27bd f745 f43d 58b7 c4bd
000002a0: 4e98 45bc f336 b9bd 89dd a03c 3aa5 b13c
000002b0: 12ab 573c 22d9 debd 54d6 f13b f379 00be
000002c0: 5ee9 08be c989 a5bc 3624 b2bd 7823 0a3c
000002d0: 09ae 993d b010 82bd fd66 7a3d 4233 44bd
000002e0: fa67 c23d 3052 72bd 1742 95bd d000 c0bd
000002f0: c1e6 ccbd a3bc 30bd 4703 45bc 7c14 573d
00000300: 5f74 0ebe e206 12bb 839f f7bc 3a9c 1bbe
00000310: 5948 103d 6b46 103c 657e e3ba 4e95 dabd
00000320: 0c1d 87bd c91a 08bd 59b9 3f3e d4e3 f13d
00000330: ec10 c4bc 526f 9c3b bae4 e6bd 60e2 13be
00000340: 8f13 3cbd 0b5c afbd 3349 85ba 9897 6b3e
00000350: 76fc 3dbc ce6b 10be 5c55 d43c b881 47be
00000360: 6ceb 44bb f8e1 1a3e dd57 573d 5183 8eba
00000370: c074 a63d 0962 f63d 8069 d6bd 7a49 ca3d
00000380: 14a0 74bd 5adf 2c3d 4b02 e0bd 9bab 22bd
00000390: a268 3cbd caf0 8d3d 79d0 b9ba 701c fabd
000003a0: 1404 c03c 54aa 553e 9368 8cbd f2d1 ab3c
000003b0: 194c c33d 21f4 2a3d 7157 20be eed6 84bd
000003c0: 70b5 f83c 3cb3 a23d 381d 0ebe 04af 69bb
000003d0: 13ce 533d 0f61 97bd e0c5 1dbe 13b2 50bd
000003e0: bd27 0d3e 435c be3d 4377 06bc 700b ba3d
000003f0: 55b4 0b3e e3d1 473e f64f 8bbd b0c6 05be

st_gcn2.0.bias f4 [128]
0.15970582 -0.22453897 -0.018937202 -0.11257298 -0.04776002 0.031131878 -0.05068667 -0.22595769
0.03848556 -0.1336423 -0.016870141 -0.04940825 0.020550536 -0.19009547 0.060126603 0.05883512
-0.067054406 -0.07745277 0.18978915 -0.055186287 -0.019455828 0.019172812 -0.17471778 0.0125912875
-0.0017803772 0.11346844 -0.02761188 -0.08515181 -0.09339525 0.06431046 0.08161046 -0.26073977
-0.1930103 -0.12783758 -0.049740266 0.013444649 -0.34165105 -0.010557135 -0.0037169068 -0.16000332
0.16004296 -0.06846562 -0.022329437 -0.10500474 -0.15149565 -0.1571132 -0.1096474 -0.0940419
-0.027993228 -0.22080238 -0.12413996 -0.104387134 -0.035527688 0.032782562 -0.026940275 0.004033294
-0.017564481 0.08268192 -0.03467301 -0.13899156 0.024276197 -0.03899304 -0.11632497 -0.01819788
0.017515015 -0.27666625 -0.046524182 0.025742019 -0.13116816 -0.03007104 -0.12926628 0.11016187
0.18944365 -0.22377506 -0.16872056 -0.124738485 0.08923852 -0.30626225 0.059136204 -0.04305053
-0.14565542 0.038757756 -0.14630426 0.090968326 -0.15046099 -0.10462098 -0.023214433 -0.16398974
-0.04743169 -0.12473076 -0.075791195 -0.22322977 0.11267619 -0.0698089 -0.15247335 0.070381396
0.061572015 0.031999506 0.15639009 -0.077743106 -0.05982798 0.09931797 -0.2000095 -0.109799035
-0.0041193976 -0.064718865 -0.0059907194 0.16391532 -0.10212002 -0.20928739 -0.11480529 -0.12882692
-0.131747 -0.052453008 0.008666563 -0.039463244 -0.048427712 -0.3124226 0.033030473 0.12456916
-0.099062316 0.15611064 0.06528607 -0.081397936 0.14917785 0.08903114 -0.009490874 -0.11006646
00000000: ec89 233e 8bed 65be 3122 9bbc aa8c e6bd
00000010: 03a0 43bd 4808 ff3c d39c 4fbd 7461 67be
00000020: 09a3 1d3d 87d9 08be 4033 8abc 4e60 4abd
00000030: 9959 a83c 63a8 42be 5047 763d 18fd 703d
00000040: d253 89bd 8f9f 9ebd 1658 423e 040b 62bd
00000050: d461 9fbc 4d10 9d3c 38e9 32be b04b 4e3c
00000060: 8c5b e9ba 2462 e83d 4f32 e2bc 1264 aebd
00000070: 0246 bfbd 34b5 833d 6323 a73d af7f 85be
00000080: 7ea4 45be dbe7 02be 73bc 4bbd f246 5c3c
00000090: e3ec aebe d5f7 2cbc 5997 73bb e9d7 23be
000000a0: 4de2 233e b437 8cbd 39ec b6bc ba0c d7bd
000000b0: ad21 1bbe 48e2 20be d18e e0bd 0a99 c0bd
000000c0: 0e52 e5bc 051a 62be 173d febd ecc8 d5bd
000000d0: 7b85 11bd 0247 063d dab1 dcbc b929 843b
000000e0: 63e3 8fbc 2355 a93d 4905 0ebd ce53 0ebe
000000f0: e0de c63c 2ab7 1fbd c93b eebd b813 95bc
00000100: a67b 8f3c 33a7 8dbe 2490 3ebd ede0 d23c
00000110: f250 06be 8b57 f6bc 615e 04be 8c9c e13d
00000120: 84fd 413e 4a25 65be 15c5 2cbe e476 ffbd
00000130: afc2 b63d 68ce 9cbe ce38 723d c155 30bd
00000140: b226 15be 74c0 1e3d c9d0 15be 9a4d ba3d
00000150: 7212 1abe 8643 d6bd 322c bebc edec 27be
00000160: bb47 42bd d772 ffbd 6a38 9bbd 5896 64be
00000170: c6c2 e63d f8f7 8ebd f921 1cbe 1f24 903d
00000180: f032 7c3d ea11 033d b924 203e c737 9fbd
00000190: 2f0e 75bd 3867 cb3d 4acf 4cbe 51de e0bd
000001a0: 03fc 86bb 538b 84bd cc4d c4bb 6bd9 273e
000001b0: 4d24 d1bd 6f4f 56be 091f ebbd 34eb 03be
000001c0: b0e8 06be f7d8 56bd 33fe 0d3c 36a4 21bd
000001d0: 235c 46bd dbf5 9fbe f64a 073d 1e1e ff3d
000001e0: 2fe1 cabd 78db 1f3e b4b4 853d f6b3 a6bd
000001f0: 14c2 183e f555 b63d 9c7f 1bbc 866a e1bd

gcn2.weight f4 [128, 128]
0.24129379 0.07038051 0.001996482 0.07147326 -0.14985229 -0.17806605 -0.1677329 0.062285554
0.11689812 0.08195043 0.0938543 0.09834844 0.22183914 -0.23827052 -0.07705384 0.02397629
0.17782252 0.1608384 0.02773935 0.052579984 0.20313096 -0.15146038 0.08548063 -0.086907476
0.20370387 0.09872873 0.11759971 0.15361586 0.13068286 0.16208787 0.18931663 -0.111961894
0.202897 0.22302382 -0.14887182 -0.15511517 0.058391947 -0.06641516 0.11108822 0.0032805959
0.05448354 -0.10387314 -0.06411363 0.1673508 0.19049327 -0.073110506 -0.217787 -0.13081792
0.110671885 -0.20317106 -0.019000052 -0.25465515 -0.18951891 -0.12287423 0.24480337 -0.14387959
-0.06164056 0.17595622 -0.022824591 -0.12792277 -0.2435742 -0.037932906 0.15730272 -0.05450903
0.0041437256 -0.14912787 -0.111379035 -0.05472344 -0.1528049 0.05868619 0.18919212 0.13170038
0.040274743 0.041532382 0.16667081 0.109844774 0.057738997 0.123560116 0.059221767 0.16761759
-0.118510224 -0.04823715 -0.12626165 -0.08401974 -0.10593324 -0.081274986 -0.0005793917 -0.09731367
0.1666096 -0.11632957 -0.005471004 -0.17583998 -0.20178671 -0.20249046 0.17146316 -0.07437037
-0.040014625 0.0020445392 -0.15949851 0.15121616 -0.15535432 -0.13458925 0.0758117 -0.16312304
-0.020453963 0.08760443 0.07870999 0.04556996 -0.08893396 -0.07668615 0.21999095 -0.07810449
-0.0916428 0.16363075 0.04144452 -0.27114108 0.020968573 -0.011075818 -0.15232913 -0.09699592
-0.101140976 -0.07692576 -0.045162722 0.18334313 -0.18998246 0.18964882 -0.26705265 -0.18464911
0.28565693 -0.2527404 -0.30733755 -0.26893672 -0.2915369 -0.2346356 -0.073319204 -0.121697284
-0.22588451 0.003300806 0.037755713 -0.15269199 -0.2005476 0.32866812 0.1431317 0.051229928
-0.13819341 -0.11062625 -0.0956653 0.006901544 -0.058891494 -0.4027851 -0.19312069 -0.12903026
0.017652068 -0.20303053 0.3782473 -0.20636359 0.23649591 0.62906516 0.20115595 0.46956056
0.47056675 0.13997854 -0.45157492 0.010127922 0.20639667 -0.18549381 -0.36771998 0.6659722
0.2684152 0.07564918 0.1769393 0.031852733 0.12696247 0.057026245 0.15421197 0.13871871
-0.23252909 0.17359488 -0.20798399 -0.08768549 0.16915658 -0.04788358 0.5673921 -0.012587774
0.24240953 -0.42538542 -0.16071363 0.17459899 0.13545108 -0.07609912 -0.3278155 0.12502155
-0.18335128 -0.19040883 0.25359654 0.18559782 -0.22439958 0.29449186 -0.0027699994 -0.15871145
-0.04108673 -0.18390183 -0.014352008 -0.19017404 -0.043550342 -0.36277527 -0.2416798 0.014357654
-0.10343204 0.15927474 -0.07716628 0.09326216 -0.23039488 -0.2517293 0.005740263 0.117072254
-0.01335213 -0.004795313 -0.120626144 0.12967804 -0.32569465 -0.33245397 -0.14749043 0.26849106
-0.20844291 0.20173016 0.30409473 -0.20367198 0.2500188 0.04676197 -0.13032493 0.13285191
-0.16361065 0.15714677 -0.42894277 -0.008872613 0.19010589 0.18276691 0.13084538 0.2713749
0.061153222 0.2180956 -0.25525418 -0.28082192 0.29944223 0.29833698 -0.039488576 0.20508958
-0.047862697 0.04535332 0.45780662 0.027783116 -0.41048434 -0.35541666 -0.007739443 -0.04221904
00000000: b815 773e a823 903d 69d7 023b 9360 923d
00000010: e172 19be f256 36be 2cc2 2bbe 231f 7f3d
00000020: 4868 ef3d a1d5 a73d af36 c03d e86a c93d
00000030: cd29 633e 30fd 73be 67ce 9dbd ed69 c43c
00000040: 1b17 363e d2b2 243e a23d e33c 1c5e 573d
00000050: 9001 503e 6e18 1bbe 7810 af3d 8cfc b1bd
00000060: bf97 503e 4a32 ca3d 1ed8 f03d 7a4d 1d3e
00000070: bad1 053e 5dfa 253e 38dc 413e 474c e5bd
00000080: 3bc4 4f3e 5b60 643e db71 18be 83d6 1ebe
00000090: 652c 6f3d ac04 88bd 3882 e33d 44ff 563b
000000a0: 222a 5f3d 71bb d4bd 024e 83bd 025e 2b3e
000000b0: ab10 433e f6ba 95bd 8e03 5fbe 22f5 05be
000000c0: f1a7 e23d 130c 50be ffa5 9bbc 2962 82be
000000d0: 3f11 42be 7ca5 fbbd bcad 7a3e 2c55 13be
000000e0: d07a 7cbd de2d 343e a3fa babc 30fe 02be
000000f0: 846b 79be 895f 1bbd f713 213e dc44 5fbd
00000100: 17c8 873b fab4 18be b11a e4bd b025 60bd
00000110: e378 1cbe ee60 703d 94bb 413e 77dc 063e
00000120: 21f7 243d dc1d 2a3d c1ab 2a3e 4cf6 e03d
00000130: ba7f 6c3d 160d fd3d 8692 723d f2a3 2b3e
00000140: 7db5 f2bd 5194 45bd bc4a 01be 8b12 acbd
00000150: 87f3 d8bd 8073 a6bd 52e2 17ba 644c c7bd
00000160: b59b 2a3e 333e eebd 1c46 b3bb 650f 34be
00000170: 2da1 4ebe a959 4fbe 0a94 2f3e 7e4f 98bd
00000180: 60e6 23bd adfd 053b 9453 23be 69d8 1a3e
00000190: 3415 1fbe c4d1 09be 2a43 9b3d ba09 27be
000001a0: 128f a7bc f469 b33d b432 a13d 91a7 3a3d
000001b0: 0223 b6bd a10d 9dbd 4f45 613e 3ff5 9fbd
000001c0: 38af bbbd d28e 273e bbc1 293d 01d3 8abe
000001d0: 49c6 ab3c 5977 35bc 2bfc 1bbe cca5 c6bd
000001e0: 0023 cfbd 418b 9dbd 8cfc 38bd 4dbe 3b3e
000001f0: c38a 42be 4d33 423e 20bb 88be a814 3dbe
00000200: a041 923e 3167 81be 595b 9dbe 13b2 89be
00000210: 5344 95be 5144 70be 6128 96bd 6d3c f9bd
00000220: 454e 67be 5652 583b bca5 1a3d 4a5b 1cbe
00000230: 5a5c 4dbe 3047 a83e 1e91 123e 79d6 513d
00000240: 9382 0dbe 0490 e2bd 2bec c3bd 5926 e23b
00000250: 3538 71bd d939 cebe 6ec1 45be 8220 04be
00000260: 129b 903c 3ce7 4fbe a1a9 c13e fa50 53be
00000270: fc2b 723e 6a0a 213f d3fb 4d3e 3e6a f03e
00000280: 20ee f03e 8956 0f3e d434 e7be 95ef 253c
00000290: a659 533e 17f2 3dbe cb45 bcbe 277d 2a3f
000002a0: b86d 893e f5ed 9a3d 932f 353e 0378 023d
000002b0: 7302 023e 5a94 693d bee9 1d3e 470c 0e3e
000002c0: 1b1c 6ebe dbc2 313e c1f9 54be 7394 b3bd
000002d0: 6237 2d3e 9321 44bd 9c40 113f f33c 4ebc
000002e0: 343a 783e 1ecc d9be 1d92 24be 14ca 323e
000002f0: b0b3 0a3e dbd9 9bbd 6fd7 a7be a605 003e
00000300: 70c0 3bbe 88fa 42be 68d7 813e 5b0d 3e3e
00000310: 01c9 65be a3c7 963e e188 35bb 4185 22be
00000320: 8f4a 28bd c350 3cbe af24 6bbc fcbc 42be
00000330: d861 32bd aebd b9be e97a 77be 5e3c 6b3c
00000340: 2dd4 d3bd eb18 233e 5b09 9ebd 3b00 bf3d
00000350: a3ec 6bbe aae2 80be d118 bc3b 94c3 ef3d
00000360: e4c2 5abc 0022 9dbb d70a f7bd 52ca 043e
00000370: 73c1 a6be 6837 aabe bb07 17be a977 893e
00000380: 0f72 55be 5a92 4e3e 4eb2 9b3e 638f 50be
00000390: 7702 803e 7b89 3f3d e673 05be 550a 083e
000003a0: 8d89 27be 15eb 203e 639e dbbe 705e 11bc
000003b0: 1eab 423e 4027 3b3e 55fc 053e a7f1 8a3e
000003c0: cd7b 7a3d 7454 5f3e adb0 82be e4c7 8fbe
000003d0: 7e50 993e a0bf 983e c6be 21bd 0103 523e
000003e0: ad0b 44bd 67c4 393d a165 ea3e 6b99 e33c
000003f0: 012b d2be 2cf9 b5be 279b fdbb dfed 2cbd

fc.weight f4 [22, 2176]
0.008155493 -0.013328036 0.016689524 -0.058143508 -0.011339694 -0.008609288 0.018568996 -0.062087078
-0.083778135 -0.13104314 -0.09154016 0.005891707 -0.030930806 -0.035145182 -0.06775146 -0.067569
-0.065351486 -0.028583432 -0.039818756 -0.04366435 -0.041442636 -0.040770676 -0.0063722446 -0.0023769948
-0.052494776 0.0894786 -0.0830934 0.12231879 0.036853183 0.0068074097 0.011022729 0.0037481978
-0.02410377 -0.002991025 -0.15200762 -0.12840068 -0.14824791 -0.11937471 -0.14101996 -0.12675047
-0.05678917 0.05366579 0.14314698 0.124230616 0.19064012 -0.063223615 -0.019714909 -0.0004720754
-0.012620041 0.0076316884 -0.002787239 -0.115698315 -0.05192481 -0.09729232 0.0013786363 -0.072667465
-0.06297363 -0.050450902 0.06649946 -0.060323108 0.12694804 -0.0329346 0.054466933 0.053307403
-0.08566274 0.032307748 -0.073112406 -0.030206902 -0.061991405 -0.110518105 0.042121764 -0.10311238
0.0350283 -0.027679298 -0.0022677372 0.003934468 0.027753554 0.0038834212 -0.00012587724 0.005295631
0.056403127 0.014555415 -0.015673772 0.013367689 -0.003914725 -0.034842774 -0.10062792 -0.0059176437
-0.108895876 -0.00048796873 -0.01809449 -0.03887926 -0.08765702 -0.029857032 -0.100880496 -0.022367049
0.010145527 -0.0028531922 0.052096773 -0.07925388 0.052282147 -0.09816636 0.040212493 -0.11264672
0.2339356 -0.19051193 0.26244888 -0.010792877 -0.0608124 -0.1379117 0.17177108 -0.12507278
0.16956873 -0.029590547 -0.22747889 0.14610918 -0.31869116 0.20443048 -0.28697553 0.0125615345
0.026281774 0.013177253 0.0404967 0.020393092 -0.006513302 0.030676745 -0.025254961 -0.010476438
-0.008412123 -0.06641448 -0.0064158333 0.13128427 -0.18692331 0.06117471 -0.19176418 0.014834184
0.013255221 -0.025676038 0.06312337 -0.07793859 0.04702136 0.03735178 0.013182402 0.000770916
-0.0042791497 -0.03425496 -0.005088283 0.061753497 0.0005633561 0.103182025 -0.023831073 0.09263836
-0.05884107 0.14492053 0.12770332 0.24603602 0.06680365 0.27407467 0.026006568 0.072983935
-0.13834167 0.059043653 -0.13686341 -0.012371873 -0.0060833115 0.050690576 -0.0026912095 -0.020802185
-0.012639679 -0.025702557 -0.032341886 -0.115937255 -0.034941405 -0.09474081 -0.052659772 0.019712944
0.10704878 -0.021497654 0.024831306 -0.0055993535 -0.053465586 0.04459023 0.25314802 -0.056991227
0.2573205 -0.08300628 0.20796722 -0.05187226 -0.07041064 -0.09056255 -0.025228454 -0.07609253
-0.012833205 0.021123815 0.044131186 0.097791255 0.14229971 0.09753975 -0.056674987 0.07500903
-0.11481494 0.059529755 -0.13704906 0.025886584 -0.080307856 -0.18457726 -0.07802096 -0.22163555
-0.090261936 -0.04412391 -0.03484862 -0.0359101 0.14686316 -0.034340214 0.1668963 -0.028211849
-0.12039137 0.09260181 -0.18275787 0.08126957 -0.14841884 0.08516584 0.15282187 0.13048878
0.15408151 0.13770197 0.0953718 0.005632716 0.09075072 0.05837841 0.09532981 0.09348426
0.01750878 -0.064712144 0.07156786 -0.142195 0.10217049 -0.09975026 0.049844034 0.018123407
0.07548603 -0.04646123 0.027005928 -0.0070476243 -0.03442029 -0.049634047 0.05530804 -0.10273652
0.11114803 -0.013656847 -0.2572636 0.21695364 -0.22595184 0.32687926 -0.14827725 -0.028845428
00000000: 9e9e 053c d65d 5abc 78b8 883c e327 6ebd
00000010: 20ca 39bc f90d 0dbc 021e 983c 054f 7ebd
00000020: df93 abbd 2c30 06be 6879 bbbd 380f c13b
00000030: 9a62 fdbc 65f4 0fbd 47c1 8abd 9e61 8abd
00000040: 00d7 85bd cd27 eabc fe18 23bd 64d9 32bd
00000050: c1bf 29bd 27ff 26bd 43ce d0bb 5bc7 1bbb
00000060: c304 57bd 8e40 b73d df2c aabd 4682 fa3d
00000070: 5df3 163d b110 df3b ad98 343c 53a4 753b
00000080: 4575 c5bc 1305 44bb e3a7 1bbe 787b 03be
00000090: 4dce 17be ba7a f4bd 8967 10be e0ca 01be
000000a0: c39b 68bd a9d0 5b3d 1f95 123e 9f6c fe3d
000000b0: 2a37 433e 627b 81bd 2981 a1bc e380 f7b9
000000c0: 4ac4 4ebc 3e13 fa3b 1caa 36bb 3df3 ecbd
000000d0: 1caf 54bd 3241 c7bd 5cb3 b43a aed2 94bd
000000e0: 52f8 80bd 9ba5 4ebd de30 883d 5d15 77bd
000000f0: abfe 013e 6ee6 06bd b818 5f3d dd58 5a3d
00000100: f26f afbd 2155 043d f5bb 95bd 7774 f7bc
00000110: b3ea 7dbd 5157 e2bd df87 2c3d 952c d3bd
00000120: d679 0f3d b2bf e2bc 519e 14bb b6ec 803b
00000130: 6c5b e33c ff80 7e3b eafd 03b9 f986 ad3b
00000140: f706 673d d679 6e3c 4866 80bc 2704 5b3c
00000150: 1847 80bb 4cb7 0ebd 0316 cebd cbe8 c1bb
00000160: cd04 dfbd 0ed6 ffb9 e53a 94bc dc3f 1fbd
00000170: 8685 b3bd bc96 f4bc 6f9a cebd 1a3b b7bc
00000180: 6d39 263c 9ffc 3abb 6d63 553d dc4f a2bd
00000190: ce25 563d 720b c9bd dbb5 243d 53b3 e6bd
000001a0: d08c 6f3e 8f15 43be b35f 863e 9bd4 30bc
000001b0: 6c16 79bd ba38 0dbe c2e4 2f3e 1413 00be
000001c0: 6da3 2d3e e067 f2bc 3af0 68be a59d 153e
000001d0: 7d2b a3be 3956 513e 75ee 92be e5ce 4d3c
000001e0: e04c d73c 68e5 573c dedf 253d 6a0f a73c
000001f0: 8a6d d5bb cc4d fb3c 7ee3 cebc 5ea5 2bbc
00000200: 00d3 09bc 5104 88bd e93b d2bb 626f 063e
00000210: d368 3fbe 5592 7a3d d45d 44be 140b 733c
00000220: 6d2c 593c 8e56 d2bc d346 813d 449e 9fbd
00000230: 7899 403d 2efe 183d 00fb 573c 4c17 4a3a
00000240: 1c38 8cbb ee4e 0cbd 9dbb a6bb 3cf1 7c3d
00000250: 30ae 133a 1951 d33d 6239 c3bc 2eb9 bd3d
00000260: 5503 71bd 0c66 143e a9c4 023e def0 7b3e
00000270: 5ad0 883d 8453 8c3e ba0b d53c 9a78 953d
00000280: 70a9 0dbe c2d7 713d ec25 0cbe 65b3 4abc
00000290: 8456 c7bb eca0 4f3d 015f 30bb 5869 aabc
000002a0: a816 4fbc 2b8e d2bc ed78 04bd 8370 edbd
000002b0: b81e 0fbd 7807 c2bd c6b1 57bd 0a7d a13c
000002c0: 643c db3d d91b b0bc 066b cb3c c87a b7bb
000002d0: bbfe 5abd 3fa4 363d 9e9c 813e a26f 69bd
000002e0: 83bf 833e 32ff a9bd 5cf5 543e 0278 54bd
000002f0: 7433 90bd dc78 b9bd e7ab cebc 66d6 9bbd
00000300: 5d42 52bc da0b ad3c e7c2 343d c846 c83d
00000310: 04b7 113e ecc2 c73d 0824 68bd 569e 993d
00000320: 1824 ebbd 79d5 733d 9756 0cbe 1a10 d43c
00000330: 7278 a4bd d201 3dbe 74c9 9fbd 6ef4 62be
00000340: 40db b8bd 46bb 34bd 6dbd 0ebd 7816 13bd
00000350: 4c63 163e 53a8 0cbd dde6 2a3e 891c e7bc
00000360: c08f f6bd 05a6 bd3d e124 3bbe a970 a63d
00000370: 1cfb 17be 6e6b ae3d 567d 1c3e da9e 053e
00000380: 8bc7 1d3e bf01 0d3e 4a52 c33d a692 b83b
00000390: 83db b93d 331e 6f3d 473c c33d ad74 bf3d
000003a0: 936e 8f3c cd87 84bd 2c92 923d 919b 11be
000003b0: c33e d13d dd49 ccbd 4229 4c3d 8a77 943c
000003c0: 6b98 9a3d 214e 3ebd 893b dd3c c2ef e6bb
000003d0: 4afc 0cbd 124d 4bbd af8a 623d 8667 d2bd
000003e0: 94a1 e33d f8c0 5fbc 0eb8 83be 1829 5e3e
000003f0: eb5f 67be b85c a73e fed5 17be 3f4d ecbc

fc.bias f4 [22]
-0.037378892 -0.06796345 0.08301895 0.06391627 0.0082425745 0.08227051 0.056754936 -0.005408081
-0.030163512 0.09185584 -0.006976983 -0.03986575 -0.064227514 0.078550965 -0.14038122 -0.017089844
-0.15923896 -0.05513155 -0.08277403 -0.14763576 0.06653375 0.31440926
00000000: 9c1a 19bd 6c30 8bbd d705 aa3d 89e6 823d
00000010: dd0b 073c 717d a83d dd77 683d 4636 b1bb
00000020: 7819 f7bc ea1e bc3d 2d9f e4bb 454a 23bd
00000030: b789 83bd 54df a03d 18c0 0fbe 0000 8cbc
00000040: 8a0f 23be 9fd1 61bd 6e85 a9bd d42d 17be
00000050: d942 883d 40fa a03e
